model/keypoint_classifier/keypoint_classifier.tflite (tflite, 6592 bytes, 6 tensors)

dense_2/bias f4 [8]
000000 70 65 30 3e 7f 65 a8 3d 33 31 53 3d 4a 2b 85 3d
       0.17226195 0.08222484 0.051560592 0.06502397
000010 4e cb bd bd a1 82 a6 bd 0b 66 b1 bd c0 6e f7 bd
       -0.09267293 -0.08130384 -0.08662041 -0.12081671

dense_1/bias f4 [10]
000000 a7 c4 1d 3e a4 34 3f 3e 26 b7 71 bd be 6c 1b 3e
       0.15407048 0.18672425 -0.059012555 0.151782
000010 12 7a 6e bd 6e 2e ff 3d b5 51 53 3e 9c b6 f7 3d
       -0.058221884 0.12460028 0.20636638 0.12095377
000020 fb 97 a3 3d 9d f8 99 ba
       0.07987972 -0.0011747066

dense/bias f4 [20]
000000 79 0e f6 3d a3 63 1b 3e f1 13 18 3e 59 c4 d5 3d
       0.12014479 0.15174727 0.14851357 0.10437841
000010 8e ec 59 3d d0 61 1f 3d 5a 70 e3 3d 0d e6 b1 3b
       0.05320411 0.03891164 0.11105414 0.0054290355
000020 5f 91 01 3e 1a db 14 3d de 06 d8 3d 16 f5 41 bd
       0.12653111 0.036341764 0.10548185 -0.047352873
000030 12 38 45 3e d3 83 90 3d 7b ec 0d bd b2 c2 41 bd
       0.1925967 0.070563935 -0.034649353 -0.047304817
000040 f5 34 a8 3d 53 db 62 bb 2d a0 59 3c 27 6b d9 3d
       0.08213226 -0.003461559 0.013282818 0.10616141

sequential/dense/MatMul f4 [20, 42]
000000 94 47 91 be 16 33 51 be e7 09 36 3d dd 77 58 3d
       -0.28374922 -0.20429644 0.044443037 0.052848686
000010 c7 11 21 be 6f f3 d9 bd b0 3b 9e 3d 46 e5 b5 be
       -0.15729438 -0.106421344 0.07726228 -0.35526484
000020 c7 7c 75 be f4 74 27 be db f5 b8 3d 79 02 a9 3d
       -0.2397338 -0.16353208 0.09031268 0.08252425
000030 bf 5f 4f 3d f5 1e 5f 3e cd 62 ca be 23 29 dc 3d
       0.05062842 0.21789153 -0.39528504 0.10750034
000040 8f 53 2d be dc 1b 25 3d f7 e4 00 bf ab aa 08 3d
       -0.16926406 0.040309772 -0.5034937 0.033365887
000050 a9 23 91 bd 93 21 3a 3d ff e4 ea bc 5a b6 bc 3e
       -0.0708688 0.045442175 -0.028673647 0.36857873
000060 08 d4 ca be b2 d2 3a 3e 26 2e 24 be d9 49 e6 3e
       -0.39614892 0.18244436 -0.16033229 0.44978216
000070 7a 87 67 bd 40 34 6e 3d 08 09 bf be 63 8e 8e bd
       -0.056525685 0.0581553 -0.37311578 -0.06960752
000080 40 ea c7 be 42 80 f6 3e 27 2e cd be 54 6b b4 ba
       -0.39045906 0.48144728 -0.40074274 -0.0013764896
000090 9b dd f7 be 3e a9 06 3f 21 82 56 be d1 34 0d 3e
       -0.4841126 0.52601993 -0.20948078 0.13789679
0000a0 85 72 a7 be 27 df 10 3f 32 fc 15 be de 99 81 3e
       -0.3270456 0.56590503 -0.14646986 0.25312704
0000b0 ba 38 eb be e2 ca ca 3e e9 60 95 be 70 f3 44 3e
       -0.45941716 0.39607912 -0.291755 0.19233489
0000c0 83 5f d3 be 1b 97 35 3e 6c 17 a7 be 2c c7 00 bd
       -0.41283807 0.17733423 -0.32635057 -0.031439945
0000d0 a9 ad cb bd 50 24 9a bc 00 08 65 bd 5a bb 30 bd
       -0.099452324 -0.018816143 -0.055915833 -0.043147422
0000e0 11 f2 ee 3d eb b9 1b 3e 8f 68 1d 3e 1a b4 9d be
       0.11667264 0.15207641 0.15371917 -0.3080147
0000f0 4b 6d a8 be c1 97 4d be 51 7d 06 3d 54 ec c8 3d
       -0.32895884 -0.20077421 0.032834355 0.09810701
000100 3a 47 f6 3c b3 89 6f be 38 da 6b 3e 87 3c 34 3d
       0.03006326 -0.23392372 0.23032463 0.044003036
000110 4a 22 94 be 6d 03 90 bd 6c ee c3 3e d3 90 4d be
       -0.2893241 -0.070319034 0.3826784 -0.20074777
000120 e8 3d bd 3e d3 65 58 be e5 ed 87 3e 9e ad e5 3c
       0.36961293 -0.21132593 0.26548687 0.028036889
000130 c5 62 8f 3e 90 f0 8f be 38 eb e5 3e da 0f 6a 3d
       0.28005043 -0.28113222 0.4490602 0.057144023
000140 60 38 36 ba 1c fe e0 3d be 8f 6a bb b2 f9 43 be
       -0.00069511496 0.109859675 -0.0035791243 -0.1913822
000150 88 80 70 3e 04 8a 8a 3e fb eb 19 be 91 6f e8 be
       0.23486531 0.27058423 -0.15031426 -0.45397618
000160 ae 29 97 be ed a0 ca be ea 9a 02 3e 26 1e da be
       -0.29523987 -0.39575902 0.12754408 -0.42601126
000170 1d b7 b8 bc fa aa d7 3d 13 00 c2 be 40 24 91 bd
       -0.022548253 0.10530658 -0.37890682 -0.07086992
000180 6d 0b d0 be 30 65 03 3e f3 54 2a be a3 44 2d be
       -0.40633717 0.12831569 -0.16633968 -0.16920714
000190 9c 3f fc 39 f2 b8 98 3d bc 96 19 bc 07 fe 92 bd
       0.00048112578 0.074571505 -0.009374317 -0.07177358
0001a0 e1 d4 cc 3d 5b 5e 34 bc b4 53 86 bc 2b 66 92 3e
       0.10001541 -0.011008824 -0.016397335 0.28593573
0001b0 62 c8 d1 bd 1d e2 91 3e 11 80 5f be ec 6f cb 3e
       -0.10243298 0.28492823 -0.21826197 0.39733827
0001c0 d7 e0 c9 be fe 20 9a 3e 41 e3 41 be 59 44 de 3e
       -0.39429352 0.30103296 -0.18934347 0.4341152
0001d0 7c 6a d0 bd 49 bb 85 3d 7e 6b e7 be 67 51 0c 3f
       -0.1017656 0.065298624 -0.45199198 0.5481171
0001e0 b4 d8 a0 bd 6d c9 21 3e 54 22 4d be a0 6e f5 3e
       -0.07853833 0.15799494 -0.20032626 0.47935963
0001f0 a3 59 b9 bd 4d aa 89 3e 68 1e 47 3d 50 58 e6 bc
       -0.090503 0.26887742 0.048612982 -0.028118283
000200 23 78 8e 3e fd d4 12 3d e2 e9 cf 3e 81 e6 4c be
       0.27826032 0.035847653 0.40608126 -0.20009805
000210 28 0f be 3e e4 3d 58 3d 80 11 8b bd 19 a6 21 be
       0.37120938 0.0527934 -0.06790447 -0.15786017
000220 13 7f 70 3e c9 75 e4 3d da c8 e9 3e 0e c4 04 3e
       0.23485975 0.11155278 0.4566105 0.12965414
000230 6d ea 38 3e aa 05 b6 be 0a a3 d2 3e 9b 75 96 be
       0.18058176 -0.35551196 0.41140014 -0.293866
000240 62 c8 ff bd d9 3f 7b be bb 88 4d 3e 14 32 3d be
       -0.12489392 -0.24536075 0.2007169 -0.18476135
000250 0c 58 07 3e b1 5e 6f be 53 b1 7f bd ac a6 f4 3d
       0.13217181 -0.23375966 -0.06242497 0.11945853
000260 39 18 b3 be b1 24 6a 3e 3a b6 a0 3d ad 40 9a bc
       -0.34979418 0.22865559 0.07847257 -0.018829668
000270 20 fa 6f 3e 94 18 de bd 18 68 83 3e bb 98 41 be
       0.23435259 -0.10844532 0.25665355 -0.18905918
000280 a8 24 c0 be b3 22 49 3e 7f 49 60 3e 91 5c 41 3e
       -0.37527966 0.19642143 0.21903037 0.18882968
000290 62 38 4c be 37 09 bc 3d ce d9 b9 3d f9 4f 09 be
       -0.19943383 0.09181445 0.09074746 -0.13409413
0002a0 c0 b1 89 3e 58 6a 4c bd d3 1c 86 3e 1b 82 a4 be
       0.26893425 -0.049906105 0.26193866 -0.32130513
0002b0 19 61 35 3e 38 c4 05 be 52 32 d7 3e 7b 76 95 be
       0.17712821 -0.13063133 0.4203058 -0.29191956
0002c0 9d 48 c4 3e f8 cc 39 be e6 21 27 3e fb 30 f1 bd
       0.3833665 -0.18144596 0.16321525 -0.117769204
0002d0 16 33 a6 3e 4c 22 72 be 9e 75 f6 3e 2d 2d 1d 3e
       0.3246085 -0.23645896 0.4813661 0.15349264
0002e0 02 25 50 3e 97 68 5a bd 38 e7 b3 bd af 6f 6a 3e
       0.20326617 -0.0533224 -0.08784336 0.22894166
0002f0 0c e8 7b 3e f6 8d d8 3d 18 02 98 3e 6b 28 77 be
       0.24600238 0.10573952 0.29689097 -0.24136512
000300 35 60 32 3e ca 0c 29 bc 2b 6e ae be 0b 9c 2e 3e
       0.17419513 -0.010317991 -0.34068426 0.17051713
000310 00 f1 61 be 26 8d a2 3d de 20 93 3e 7e 29 66 3e
       -0.2206459 0.07937078 0.28736013 0.22476766
000320 dc 63 0f be 58 09 79 be 1a 09 82 3d d7 d8 22 3e
       -0.14002937 -0.2431997 0.06349392 0.1590303
000330 3f ce 7e bd 8c 2b 68 bd 1b 62 b6 bd 5a 49 bc 3d
       -0.06220841 -0.056682155 -0.08905431 0.09193678
000340 9a 10 86 bd ba a5 fa bd 3b 55 03 be 8a 03 9e be
       -0.06546135 -0.12238641 -0.12825482 -0.30862075
000350 b1 47 a8 be 88 38 f7 bd 0c d5 d3 be d1 8f a4 be
       -0.32867196 -0.12071329 -0.4137348 -0.32140973
000360 90 b4 b4 b9 66 b8 a3 3d 3e f2 84 be a7 a3 4d be
       -0.00034466805 0.079941556 -0.25966066 -0.2008196
000370 b7 b1 14 3e 91 8f 33 be 1a cc 1c be 87 96 51 be
       0.14520918 -0.17535235 -0.15312234 -0.20467578
000380 b2 e9 a7 bd ec 31 59 3d 9f 36 ab be 1e 04 0f be
       -0.08198871 0.053026125 -0.3344011 -0.13966414
000390 4d 01 30 3e a1 f8 ae bd e0 aa ca bd 72 fc 80 3d
       0.17187996 -0.08543516 -0.09895873 0.0629815
0003a0 69 a2 72 be f0 a9 21 3d 5c cb 24 be be 93 c6 bd
       -0.23694767 0.039468706 -0.160932 -0.09696148
0003b0 94 60 c2 3e 81 0c 2c be 93 4f ab bd 9a ea 56 3e
       0.37964308 -0.16801645 -0.08364787 0.20987931
0003c0 92 d2 aa 3d 99 0f 39 3e cc 0e c9 3d 7a 56 77 3e
       0.08340944 0.18072356 0.098172754 0.24154082
0003d0 f3 20 c7 3e bc d1 f8 bd 3a 79 94 be 2e 0e 05 be
       0.38892326 -0.12149379 -0.2899874 -0.1299369
0003e0 69 2d 91 be 20 43 b6 bd 20 59 02 3d c7 43 4a be
       -0.28354958 -0.08899522 0.031823277 -0.19752418
0003f0 20 dd c4 bc 9c 3c 6a 3e 8d c6 72 bd 22 27 a1 bc
       -0.024031222 0.22874683 -0.059271384 -0.01967198

sequential/dense_1/MatMul f4 [10, 20]
000000 9d b4 59 be f2 35 26 3f 8d f2 bd be 0c 8a 41 3e
       -0.21260305 0.64926064 -0.37099114 0.18900317
000010 95 85 ca 3d fc d0 ce bd 36 71 5a 3e d2 8e 8a 3e
       0.0988876 -0.10098454 0.21332249 0.27062088
000020 5b e6 26 be f8 93 25 be 8b 33 5d be fc cd 9a 3d
       -0.16298811 -0.16169727 -0.21601693 0.0755882
000030 ce 27 a4 3e d1 71 0a 3f 91 b7 7a bd 15 a5 cf 3e
       0.3206162 0.5407992 -0.06121022 0.40555635
000040 ad b3 2a 3e a5 84 06 3f ab 23 26 be 6c 0a 08 be
       0.16670103 0.5254615 -0.16224544 -0.13285226
000050 c8 23 7c be 3e 17 d3 3e 47 db 8e bd 70 dc e1 3e
       -0.24623024 0.4122867 -0.069754176 0.44113493
000060 6d e2 f0 3d 6e a7 e7 3d 28 1f 34 be 7c f8 b5 be
       0.11761937 0.113112316 -0.1759001 -0.3554114
000070 d0 05 48 3d fb e0 56 3e d6 ab b1 bd e3 14 93 be
       0.04883367 0.2098426 -0.08675353 -0.28726873
000080 35 82 e3 3e 41 c8 7a 3d 14 e1 f3 be bf 94 80 3e
       0.44435278 0.061226133 -0.47632658 0.25113484
000090 ed 15 0c 3e 6d c3 45 bd 69 5e 22 3e af 16 83 3e
       0.13680239 -0.048282076 0.15856327 0.25603244
0000a0 a2 76 ce 3e 2c ef 10 bd 9a d9 c3 3e e6 89 cc be
       0.40324885 -0.035384342 0.38251954 -0.39948958
0000b0 1f c3 4a bd 43 8e 74 3e b1 b3 8d 3e ce 1d 8f 3e
       -0.04950249 0.23882394 0.27676156 0.27952427
0000c0 57 9b 50 3d 4b c7 20 3e ee 6a 78 be a8 a3 82 3e
       0.050929394 0.15701024 -0.2425954 0.25515485
0000d0 62 37 12 3d 8a c0 b3 3d 4c 4f c0 3e eb 64 84 3e
       0.03569735 0.08776958 0.375605 0.25858244
0000e0 d9 77 62 3d db bc 78 bd 77 3b 45 bd d3 a8 0f be
       0.055290077 -0.06072698 -0.048152413 -0.14029245
0000f0 77 f8 87 3e 8f 1b 90 be 9d 38 16 3f 35 77 2c 3e
       0.2655675 -0.28146026 0.58680135 0.16842349
000100 d1 22 9a 3c 80 aa a9 3e 2e 01 0c 3f a5 ee 8e bb
       0.01881543 0.33137894 0.546893 -0.0043619447
000110 17 ec 99 3e 50 96 5b 3d f1 29 26 3f 9c a8 e2 3e
       0.30062935 0.053610146 0.6490775 0.44269264
000120 d1 88 21 be aa 51 dd be ae c3 40 3e 83 67 08 be
       -0.15774848 -0.43226367 0.18824646 -0.13320737
000130 3b c0 a9 3e d3 50 ec 3e e2 21 b7 bb e7 48 d7 3e
       0.33154473 0.46155414 -0.005588756 0.42047808
000140 48 94 04 be 27 be e5 be 9d 43 59 3e e6 5b c9 be
       -0.1294719 -0.44871637 0.21217199 -0.39327925
000150 98 55 89 3e 46 d2 86 be df ea 1f be 15 5b 0b 3e
       0.26823115 -0.263323 -0.1561694 0.13608964
000160 07 e4 82 be c5 1b 53 be 89 b2 d3 be c0 44 41 3d
       -0.25564596 -0.20616062 -0.4134715 0.047184706
000170 99 37 5e be 40 7b c2 3e 88 1e fa 3d 1b 65 50 be
       -0.21700896 0.37984657 0.122128546 -0.20351069
000180 30 2f c6 be 29 a2 08 be 35 49 fa bd c6 93 87 be
       -0.38707876 -0.13343109 -0.122209944 -0.2647993
000190 a5 54 81 3e d6 e2 fb 3e 32 76 60 3e 20 2f a2 3e
       0.2525989 0.491965 0.21920088 0.3167658
0001a0 f3 b6 06 3f c6 77 59 be 70 79 56 3d cb 51 03 be
       0.5262291 -0.21237096 0.052361906 -0.1282417
0001b0 f5 38 32 be d7 54 9f 3e fc 6c 92 be 93 3e f5 bd
       -0.1740454 0.31119415 -0.28598773 -0.11974826
0001c0 df 9f 16 3e dc ba c7 3e a6 3e 10 3e 2e 60 61 be
       0.14709423 0.3900975 0.14086398 -0.22009346
0001d0 cd dc 87 bd df 1e 25 3d 8d 17 58 3e d6 74 ad be
       -0.06633911 0.040312644 0.21102734 -0.338782
0001e0 82 08 20 bd dc 7d a7 3e 05 58 99 3e 24 66 f6 be
       -0.039070614 0.3271321 0.29949966 -0.48124802
0001f0 cb ed 9c bc e5 73 20 3f a0 d7 5d be 1b f5 83 3e
       -0.019156357 0.6267684 -0.21664286 0.25772938
000200 25 30 bc 3e fd 1b 14 bf 52 2e 03 3f 0d b0 b3 3d
       0.3675548 -0.57855207 0.51242554 0.087738134
000210 3a 29 1f 3f e3 67 75 3e eb d3 45 be c4 e2 53 3e
       0.6217228 0.23965411 -0.19319122 0.20691973
000220 bb e0 b3 be 2f 83 5e 3e 18 1a ec be bd b1 38 3e
       -0.35132393 0.2172973 -0.46113658 0.18036552
000230 24 c6 10 bf da 52 b9 3e 6f 1c 71 be f9 7e 63 be
       -0.5655234 0.36196023 -0.23546003 -0.22216405
000240 5f 89 a2 be 48 1a 2c 3e c5 79 7f 3d 00 36 05 be
       -0.3174543 0.168069 0.062371988 -0.1300888
000250 6d e3 0c bf d2 9c 76 be f4 c5 5b 3e f1 5b 9c 3e
       -0.55034524 -0.2408326 0.21462232 0.30538896
000260 99 17 13 be ff f3 54 3e 70 50 c2 3e 0c 2d 7c 3e
       -0.1436447 0.20796202 0.37951994 0.24626559
000270 dc 3d 20 be f5 8d b5 3e c7 ce 55 be fe 68 97 3e
       -0.15648597 0.35459867 -0.2087966 0.2957229
000280 c2 13 ca bd 1e 87 97 be 47 8c 25 bd 6d 05 72 3c
       -0.0986705 -0.29595274 -0.040416982 0.014771801
000290 96 3d 4d 3e 27 d7 d0 bd c6 55 24 3e 35 b0 68 3e
       0.20043024 -0.10197287 0.16048345 0.22723468
0002a0 f7 d3 a8 be 32 60 be 3c 3a 49 31 be 71 cb aa 3e
       -0.32974216 0.023239229 -0.1731309 0.33358338
0002b0 d2 61 5f be 08 a1 fb be c7 35 b0 3e 9d 4d a9 be
       -0.21814659 -0.49146295 0.3441603 -0.33067027
0002c0 dc 21 f2 3e 43 51 db bd 3b 62 02 3f 3c ad fa 3d
       0.47291458 -0.10708859 0.5093114 0.12240073
0002d0 cc 65 12 bf 76 b8 38 3e 66 05 b4 be 2c c5 56 3e
       -0.5718658 0.18039116 -0.3516037 0.20973653
0002e0 15 f2 c9 3e e6 5b c8 3e 32 6c 1a 3f c0 16 31 3f
       0.39442506 0.39132613 0.6032134 0.6917534
0002f0 b6 59 9b be 16 6a e4 3e 86 85 3a be 44 69 0b 3f
       -0.30341882 0.44612187 -0.18214998 0.544575
000300 98 a5 f9 3d 4f e5 d9 bc 60 1c 2f 3f 53 2e 0d be
       0.121897876 -0.0265986 0.6840267 -0.13787203
000310 eb 06 d7 bd 4c 0b 97 be e5 1f a9 3d ae de 9d 3e
       -0.104993664 -0.29500806 0.082580365 0.30833954

sequential/dense_2/MatMul f4 [8, 10]
000000 81 5a 4d bf bc 31 3f be 1c 16 2b 3e 9f 77 44 3f
       -0.80216223 -0.18671316 0.16707653 0.7674503
000010 ea a6 a5 be e4 d6 76 3e df 7c da 3e b0 f6 2a 3d
       -0.32353908 0.24105412 0.42673394 0.041739166
000020 47 fd 05 3d ff ac fa be 55 98 03 3f 52 ac 1b 3f
       0.032712247 -0.4896011 0.51404315 0.60809815
000030 86 e6 e9 be ec e6 2c be 18 d7 86 3e 62 5d e7 3e
       -0.45683688 -0.16884965 0.26335979 0.45188433
000040 4c 87 3d 3f 03 42 0f 3e 5c 4a 33 3e 39 2a 7c be
       0.7403457 0.13990025 0.17508835 -0.24625482
000050 4d da 58 3d c1 61 97 3e 58 42 a7 be f9 93 7a 3e
       0.052942563 0.29566768 -0.32667804 0.2447051
000060 7b 86 0c 3e 52 84 29 3f 28 df b3 be 8b a7 e0 bd
       0.13723175 0.6621753 -0.35131192 -0.10969456
000070 97 a3 44 3f 91 30 cd 3e 3c 00 f7 3e 14 4d 09 be
       0.7681212 0.40076116 0.48242366 -0.13408309
000080 7d fe 9e 3e da 41 1d 3d 96 a5 a6 be 74 cb c6 be
       0.31053534 0.03839288 -0.32548207 -0.38827097
000090 28 63 38 3e f8 8b 38 3f 76 30 ea bd d4 9e 47 3e
       0.18006575 0.72088575 -0.114350244 0.19494182
0000a0 3b de 07 3e 48 88 cd be d6 18 81 3e 91 ab 34 bf
       0.13268368 -0.40143037 0.2521426 -0.7057429
0000b0 5e f5 f9 3e 91 94 45 bf f7 31 f8 3c 44 90 c8 be
       0.48820013 -0.7717982 0.030297263 -0.39172566
0000c0 5c f1 92 3e a1 0b 80 3e 55 53 84 3c 49 5f 14 bf
       0.28699768 0.25008872 0.016153017 -0.57957894
0000d0 19 2c 34 3e 11 c0 8f be 1a 15 bf 3e 41 30 09 3d
       0.17594947 -0.28076223 0.37320787 0.033493284
0000e0 f1 83 2b bf 0b a0 1e bf 4f 7e 58 be ab 85 e9 be
       -0.669982 -0.61962956 -0.21141933 -0.45609793
0000f0 85 43 14 bf fc 6c 1a bf 1f df e9 be 87 78 e1 be
       -0.57915527 -0.60322547 -0.4567804 -0.44037268
000100 4c ff ab be 6e 17 0b bf 88 e3 00 bb e5 c6 93 be
       -0.33593214 -0.54332626 -0.001966687 -0.28862682
000110 58 34 22 bf 03 cd 29 3e ba 1e b3 3e 89 4c 29 bf
       -0.6336112 0.16582112 0.3498438 -0.6613241
000120 eb 44 db 3c 33 89 8d be 8a 39 03 be 24 a1 89 be
       0.026766261 -0.27643737 -0.12814918 -0.26880753
000130 81 57 9a be b9 e2 ad 3e 70 d7 29 3e a8 18 3d be
       -0.30144885 0.33962038 0.16586089 -0.18466437
